test_state_dict2.pth (torch, 252071 bytes, 2 tensors)

fc1.weight f4 [250, 250]
0.09826606 -0.020192629 -0.039906755 -0.025459632 -0.05134351 -0.047787562 -0.0351885 0.026881104
-0.016135033 0.031192383 0.02372025 0.011604812 0.03414037 -0.028704945 -0.035561714 -0.042992502
-0.030680658 -0.023736233 -0.038067374 0.020510921 0.015668308 -0.006657944 -0.008877483 0.022399724
-0.03588481 0.020556126 0.027393294 -0.041473757 0.005163357 0.0064834896 0.013189537 -0.038613398
-0.012567811 0.012188335 0.0011781481 -0.027820343 0.010208628 -0.016959604 -0.02239837 -0.0283518
0.010990642 -0.0223823 -0.02615 -0.037928894 -0.012791646 0.031205915 0.01726309 0.029048461
-0.011305927 0.029277233 0.003671146 -0.048758823 0.01342369 -0.023251394 -0.030100098 -0.052240342
0.034142874 -0.043421764 -0.024704965 -0.05268676 -0.008552232 -0.041464902 -0.036178753 0.04371968
-0.00048790194 -0.027888943 0.0049310615 -0.016567338 0.028677875 -0.0039002672 -0.04091366 -0.03793463
-0.008076391 -0.02269641 -0.026355412 0.0036594204 -0.044423476 -0.0031481266 -0.0037942582 -0.016974447
-0.033945065 0.03035737 -0.04196028 0.0014689914 0.003607972 0.02152192 0.012797605 0.038259562
-0.036966834 -0.046490386 0.016521832 -0.014264364 0.004533135 -0.014594592 -0.0035110677 -0.0029587925
0.01483809 -0.036628522 -0.016055467 0.017405083 -0.0081772115 0.019022165 -0.044844434 -0.040623106
-0.024971621 -0.01526244 -0.030547382 -0.021574507 -0.0561892 0.0006267324 -0.023217496 -0.03222709
-0.055495612 0.0012336014 -0.047113575 -0.018391153 -0.025156155 -0.049349252 0.017426565 -0.04112225
-0.007670186 -0.013318285 0.0111462725 -0.0300421 0.013947615 -0.032730486 1.6853273e-05 0.03650308
0.01739138 0.037442546 0.00068022765 0.028593078 0.015082662 0.008764542 0.0110239955 -0.011797083
-0.0017846558 0.015923943 0.005116325 0.016046615 0.018542435 -0.046128336 -0.0142946225 0.024140395
-0.009109889 0.013175315 -0.005148889 0.018395578 -0.040063336 -0.009762569 -0.037907146 -0.044577707
-0.0029444245 0.0015746718 -0.022785442 0.010155166 -0.024818785 -0.013275295 -0.013256247 0.0062643127
0.0068725892 -0.013060582 -0.030614242 0.012978192 0.014383467 -0.0052541816 -0.0023501345 0.02090923
0.005932562 -0.045324504 -0.027048422 -0.041772664 -0.01418903 -0.0057039815 -0.010303489 -0.011952388
0.04658255 -0.029422887 -0.047914952 -0.008131764 0.015180643 -0.045818485 -0.024346048 -0.046825066
0.015315645 -0.021538911 -0.04772994 0.029839858 -0.040529396 -0.025645029 -0.046300285 -0.033274427
0.010659174 -0.013406273 -0.031499576 -0.025257127 -0.0015817188 -0.0047271354 -0.020579912 0.012634517
-0.01795815 0.011006377 0.011650005 -0.022200273 -0.040205892 -0.019146675 0.00029799543 0.011605349
-0.027623784 0.025862372 0.013923467 -0.0014157424 0.0070229927 0.0008392131 -0.0026253005 0.02403056
-0.046612278 -0.005231121 -0.017106732 0.017181493 -0.031021375 -0.0033217182 -0.039798327 0.0019511244
0.027176805 0.021996481 -0.039728396 0.02315233 -0.02390315 0.019894829 -0.0143613145 -0.011635738
-0.00028837306 -0.02068932 -0.016766207 0.025998795 -0.018720184 -0.0018891315 -0.011634215 -0.017466517
-0.01736228 0.011277133 -0.049210884 -0.019341055 0.015555515 0.03271129 -0.009127176 0.009331471
-0.0063825157 -0.004658269 0.07835578 0.13483845 0.07907267 -0.0062772315 -0.01692813 -0.0043709334
00000000: b73f c93d 036b a5bc 4475 23bd b890 d0bc
00000010: 934d 52bd e4bc 43bd d121 10bd c335 dc3c
00000020: 9e2d 84bc 2b87 ff3c f850 c23c 1c22 3e3c
00000030: c6d6 0b3d a226 ebbc 29a9 11bd e818 30bd
00000040: 0156 fbbc 7d72 c2bc 89ec 1bbd 8506 a83c
00000050: d35a 803c e22a dabb dd72 11bc a07f b73c
00000060: f3fb 12bd 5265 a83c e767 e03c 63e0 29bd
00000070: 6131 a93b 7473 d43b ee18 583c 1529 1ebd
00000080: 38e9 4dbc 95b1 473c 176c 9a3a 7de7 e3bc
00000090: 1742 273c deee 8abc c97c b7bc 0942 e8bc
000000a0: 1812 343c 165b b7bc 8638 d6bc 545b 1bbd
000000b0: 0d94 51bc 8ca3 ff3c 536b 8d3c 0af7 ed3c
000000c0: 7f3c 39bc cfd6 ef3c 9c97 703b 55b7 47bd
000000d0: 09ef 5b3c b579 bebc 7b94 f6bc f8f9 55bd
000000e0: 66d9 0b3d 05db 31bd 1162 cabc 12ce 57bd
000000f0: a91e 0cbc 1ad7 29bd 2c30 14bd 6813 333d
00000100: 17cd ffb9 5a77 e4bc be94 a13b 3ab8 87bc
00000110: dded ea3c a09b 7fbb 1595 27bd 5861 1bbd
00000120: d752 04bc d2ed b9bc 4ee7 d7bc e3d2 6f3b
00000130: 64f5 35bd cd50 4ebb 17a9 78bb ff0d 8bbc
00000140: fb09 0bbd 05b0 f83c 8bde 2bbd 2c8b c03a
00000150: ba73 6c3b bd4e b03c 0cad 513c 0fb6 1c3d
00000160: 896a 17bd b46c 3ebd cb58 873c 14b5 69bc
00000170: b18a 943b 281e 6fbc f119 66bb 4de8 41bb
00000180: 761b 733c ca07 16bd c186 83bc 1b95 8e3c
00000190: b6f9 05bc 5fd4 9b3c ccae 37bd 6a64 26bd
000001a0: 4991 ccbc 500f 7abc 813e fabc 05bd b0bc
000001b0: a626 66bd 4d4b 243a 9e32 bebc 8e00 04bd
000001c0: 5e4f 63bd cbb0 a13a 2afa 40bd 0ba9 96bc
000001d0: 4814 cebc 7122 4abd 28c2 8e3c ce6f 28bd
000001e0: 2f56 fbbb f034 5abc db9e 363c da1a f6bc
000001f0: 8a84 643c 6710 06bd 2160 8d37 4184 153d
00000200: 5e78 8e3c 5b5d 193d 4e51 323a 083c ea3c
00000210: 451d 773c 2799 0f3c fd9d 343c 8d48 41bc
00000220: 1deb e9ba ee72 823c d8a6 a73b 3174 833c
00000230: 4ee6 973c 11f1 3cbd fe33 6abc 14c2 c53c
00000240: a541 15bc 47dd 573c 03b8 a8bb 53b2 963c
00000250: 7419 24bd 2ff3 1fbc 8644 1bbd 1d97 36bd
00000260: 3ff7 40bb 3865 ce3a 89a8 babc da61 263c
00000270: c450 cbbc 9f80 59bc bb30 59bc dd44 cd3b
00000280: 7533 e13b 0dfc 55bc b8ca fabc 7ca2 543c
00000290: a2a8 6b3c 452b acbb b704 1abb d549 ab3c
000002a0: f065 c23b 30a6 39bd a794 ddbc d019 2bbd
000002b0: 1b79 68bc 77e8 babb f7cf 28bc f3d3 43bc
000002c0: 58cd 3e3d 4408 f1bc 7842 44bd 173b 05bc
000002d0: 3bb8 783c 2aac 3bbd 5d71 c7bc a4cb 3fbd
000002e0: 79ee 7a3c 5f72 b0bc 7880 43bd b872 f43c
000002f0: 2702 26bd 8615 d2bc 5ea5 3dbd c44a 08bd
00000300: d1a3 2e3c fca5 5bbc b305 01bd 09e8 cebc
00000310: ad51 cfba 16e6 9abb 3497 a8bc 0101 4f3c
00000320: f81c 93bc 1754 343c aadf 3e3c 59dd b5bc
00000330: efae 24bd 7dd9 9cbc 453c 9c39 5d24 3e3c
00000340: 464b e2bc 53dd d33c 411f 643c 6f90 b9ba
00000350: 2221 e63b a3fe 5b3a 3c0d 2cbb bddb c43c
00000360: 84ec 3ebd d369 abbb 6b23 8cbc 34c0 8c3c
00000370: 8a20 febc 2fb1 59bb 9203 23bd dfbc ff3a
00000380: e4a1 de3c f731 b43c 3eba 22bd f5a9 bd3c
00000390: 8ad0 c3bc 7bfa a23c b84b 6bbc d3a3 3ebc
000003a0: c730 97b9 a67c a9bc 4959 89bc 6dfb d43c
000003b0: 125b 99bc bc9c f7ba 6f9d 3ebc f115 8fbc
000003c0: 573b 8ebc b9c3 383c 5a91 49bd 2271 9ebc
000003d0: 8fdc 7e3c 46fc 053d 278a 15bc 07e3 183c
000003e0: 6c24 d1bb 65a4 98bb ff78 a03d 1713 0a3e
000003f0: daf0 a13d 3cb1 cdbb ddac 8abc 0c3a 8fbb

fc1.bias f4 [250]
0.013684938 -0.0013375138 0.0027730921 0.012898365 0.0011892268 0.0013732904 -0.0013798191 0.0029419211
0.011568185 -0.011440638 0.007987659 -0.0005013112 -0.00023892445 -0.0007103727 -0.0008616949 0.001915485
0.0023619616 0.0033628272 -0.009479135 0.012070006 0.0008207132 0.002874988 -0.008830648 0.009494001
0.0026640806 0.010011718 -0.011911565 0.003791515 0.003288162 0.004387994 0.0026280165 -0.0077387416
-3.8212114e-05 0.013346492 -0.009381289 -0.0017515029 -0.008056553 -0.0046262657 -0.010346643 0.002337488
-0.0037863022 0.0010392854 0.0031380008 -0.0013049337 0.0020416884 0.01189763 0.0020096032 0.00036863767
-0.009475959 -0.011201207 0.002449586 0.0012125344 -0.0030879609 -0.0005616952 0.0017048633 0.010897197
0.0035240161 -0.001433527 -0.0070387553 0.0013641738 0.0008604841 -0.009332327 -0.002080171 -0.00791066
-0.010263486 0.0028493686 -0.0104056345 0.0019371219 0.00533723 -0.011113637 0.0032103679 -0.0010166033
-0.01027964 0.0038273411 -0.0066259797 -0.0021472492 0.001022421 0.0020391997 0.0008897616 0.0034974073
-0.0028413546 0.0029684838 0.008128139 0.001661265 0.0018900384 0.011752321 0.00027226662 0.012356537
-0.00079011207 -0.008606599 0.004428469 0.0036464406 0.0015437759 0.0017425943 0.0083622765 -0.002282789
0.005082231 -0.0012221759 0.0010740162 -0.010040525 0.0013201839 0.004021581 0.0010600793 0.01359979
0.009386465 0.012176166 0.0023987368 -0.007162149 0.0015327882 0.0013819486 0.0025332796 -0.007965628
-0.0020481988 -0.00088059215 0.0029885 0.0062851785 -0.010145064 -0.0067868805 0.001883633 -0.0109348595
0.0035401776 -0.0040580165 -0.008289252 0.0037482632 -0.010891242 0.00024387604 0.002867691 -0.0039573614
0.015443749 -0.0017387251 0.0026020901 -0.0041229124 -0.0065745492 -0.009069579 0.0125302235 0.00083999505
-0.00036859285 0.0010691378 0.0008287429 0.002528445 0.0011450292 0.007061352 -0.00023156403 0.004418261
-0.005722287 -0.007187078 -0.00957638 -0.004109743 0.002355446 0.0011502543 0.0035767965 0.00036431628
0.013287091 -0.0021549896 -0.0010070712 -0.008378648 -0.0075493427 0.011891508 -0.011237357 -0.01141748
-0.005296459 0.002610851 0.009448413 0.0016878537 -0.00033388857 0.0031819777 0.0036809065 0.012144148
0.008081339 -0.0030006384 0.005740036 0.003819958 0.0010075222 0.002914613 0.0018139558 -0.0018069451
0.0019390661 0.009520619 -0.009481165 0.006507864 -0.008817679 -0.010702326 -0.010421048 -0.008734585
0.0060345125 0.0030565592 0.0062523703 0.0066269063 -0.004375783 0.000658505 0.002724851 0.0045923055
-0.0008237835 0.00040567102 0.004915578 0.012703192 0.0019916522 0.010381812 0.004447099 -0.007447993
0.004079242 0.0018170682 0.013477678 0.010164295 -0.003873558 0.012197831 0.01029141 0.0020308774
0.0038557898 0.0059534796 0.0026145298 0.0011327695 -0.011434902 -0.0037255953 0.00856261 0.0029873797
0.009792825 0.0018305006 -0.0042091315 0.0017084938 -0.009710467 -0.004585637 -0.009083714 5.7671066e-05
0.0013726421 0.00037874447 0.0031219637 0.0052037095 0.011904355 0.001139678 0.013966651 0.004773672
0.002366544 0.003033646 0.004480355 0.0010580643 0.00036909565 0.0023049782 0.007310429 0.0023391945
-0.0072016995 -0.0020890583 0.00025294346 0.0028993273 -0.00036506314 -0.0015993415 -0.009804254 0.0056493874
-0.008025291 -0.0065619303
00000000: ca36 603c 844f afba c4bc 353b aa53 533c
00000010: d4df 9b3a fbff b33a 0cdb b4ba 3fcd 403b
00000020: 7c88 3d3c 8471 3bbc acde 023c 6d6a 03ba
00000030: cb87 7ab9 4e38 3aba 5ee3 61ba 0311 fb3a
00000040: 24cb 1a3b e162 5c3b 604e 1bbc 46c1 453c
00000050: 2125 573a 4b6a 3c3b 6cae 10bc ba8c 1b3c
00000060: db97 2e3b 3008 243c ba28 43bc 117b 783b
00000070: 347e 573b 29c9 8f3b cd3a 2c3b 4595 fdbb
00000080: f245 20b8 3fab 5a3c fab3 19bc af92 e5ba
00000090: a2ff 03bc ee97 97bb f784 29bc 8b30 193b
000000a0: 9c23 78bb a238 883a eba6 4d3b 4f0a abba
000000b0: d9cd 053b 47ee 423c 8cb3 033b b645 c139
000000c0: 0e41 1bbc 4485 37bc 3c89 203b e7ed 9e3a
000000d0: 635f 4abb ba3e 13ba b875 df3a 288a 323c
000000e0: 2ef3 663b 2fe5 bbba 5ca5 e6bb 14ce b23a
000000f0: 1c92 613a 9ee6 18bc 7a53 08bb b69b 01bc
00000100: 2e28 28bc 79bc 3a3b 657c 2abc 06e7 fd3a
00000110: eee3 ae3b f915 36bc 0965 523b 8c3f 85ba
00000120: ef6b 28bc 21d4 7a3b bf1e d9bb ddb8 0cbb
00000130: c202 863a 18a4 053b e43e 693a c234 653b
00000140: 0536 3abb e58a 423b e32b 053c cebe d93a
00000150: 2abb f73a cf8c 403c 02bf 8e39 1373 4a3c
00000160: 861f 4fba b102 0dbc b11c 913b 1ff9 6e3b
00000170: 8658 ca3a c367 e43a ee01 093c d89a 15bb
00000180: d888 a63b 6b31 a0ba 01c6 8c3a 0481 24bc
00000190: 050a ad3a 77c7 833b 5cf2 8a3a a7d1 5e3c
000001a0: b0c9 193c 8b7e 473c 2034 1d3b 76b0 eabb
000001b0: d6e7 c83a 8022 b53a 6105 263b 4482 02bc
000001c0: 133b 06bb 8ad7 66ba b6da 433b e6f3 cd3b
000001d0: 7c37 26bc 7b64 debb 3ce4 f63a 2028 33bc
000001e0: 5302 683b 1cf9 84bb a5cf 07bc 6ca5 753b
000001f0: 2e71 32bc fab8 7f39 dfef 3b3b c1ac 81bb
00000200: c707 7d3c efe5 e3ba d487 2a3b 7f19 87bb
00000210: 516f d7bb 9298 14bc 914b 4d3c 1d33 5c3a
00000220: b23f c1b9 5022 8c3a ff3f 593a 45b4 253b
00000230: ce14 963a ea62 e73b ffcf 72b9 0fc7 903b
00000240: 0682 bbbb 9481 ebbb 40e6 1cbc 06ab 86bb
00000250: d45d 1a3b 21c4 963a b068 6a3b b401 bf39
00000260: 19b2 593c ba3a 0dbb b4ff 83ba 9946 09bc
00000270: 7a60 f7bb 99d4 423c e41c 38bc 6210 3bbc
00000280: eb8d adbb d01a 2b3b 84cd 1a3c f93a dd3a
00000290: c40d afb9 ba88 503b 5d3b 713b 40f8 463c
000002a0: 9867 043c 5ca6 44bb e916 bc3b 4358 7a3b
000002b0: d60e 843a 1803 3f3b 42c2 ed3a 04d7 ecba
000002c0: 4328 fe3a 5ffc 1b3c e356 1bbc ec3f d53b
000002d0: 0778 10bc cf58 2fbc 0bbd 2abc 811b 0fbc
000002e0: 29bd c53b 8e50 483b afe0 cc3b 8526 d93b
000002f0: ba62 8fbb 869f 2c3a 6a93 323b 0d7b 963b
00000300: 2df3 57ba 3eb0 d439 db12 a13b 0d21 503c
00000310: 6186 023b 7a18 2a3c f8b8 913b 4b0e f4bb
00000320: 29ab 853b b12a ee3a 7bd1 5c3c 2588 263c
00000330: 85db 7dbb 69d9 473c 4d9d 283c 7818 053b
00000340: 6bb1 7c3b 6815 c33b 8858 2b3b 7079 943a
00000350: 7559 3bbc 1e29 74bb 304a 0c3c eac7 433b
00000360: 1672 203c 68ed ef3a c1ec 89bb 8aef df3a
00000370: a718 1fbc 1c43 96bb dcd3 14bc d6e3 7138
00000380: 3aea b33a 3992 c639 dc99 4c3b e183 aa3b
00000390: 7c0a 433c 3f61 953a 61d4 643c 776c 9c3b
000003a0: 0518 1b3b 22d0 463b f1cf 923b bfae 8a3a
000003b0: 2e83 c139 1e0f 173b 538c ef3b 2c4d 193b
000003c0: 3cfc ebbb 95e8 08bb 7f9d 8439 a402 3e3b
000003d0: f265 bfb9 ffa0 d1ba 06a2 20bc 7f1e b93b
000003e0: 837c 03bc 7605 d7bb
